tests/assets/S3D_sample.pt (torch, 96203 bytes, 8 tensors)

model.base.8.branch2.1.bn_s.bias f4 [48]
000000 f3 0f d9 bf a1 4a 19 c0 79 fc ca bf 22 11 8a 3e
       -1.6957992 -2.39518 -1.5858299 0.26966196
000010 e4 c5 5f bf 32 e3 4b 40 bc 62 01 40 8b dd ae bf
       -0.8741133 3.185742 2.0216513 -1.366136
000020 d8 72 b9 3f ca 38 f3 be 4b 10 36 bf 86 75 a9 bf
       1.4488173 -0.47504264 -0.7111861 -1.323899
000030 24 71 f3 bf 60 08 25 3e 79 df 16 40 16 2d af 40
       -1.9018903 0.16116476 2.3573897 5.4742537
000040 41 8d 17 40 9b 44 d9 3d 45 0a 49 3f 07 af 01 40
       2.3679965 0.106087886 0.78531295 2.0263078
000050 2e 0c 9b 3e 21 01 54 c0 b0 fe 3c 3f e2 1d b2 bf
       0.3028273 -3.312569 0.7382612 -1.391537
000060 d2 9b 8b 3f 75 01 93 40 c4 08 db 3e ec f5 a5 bf
       1.0906928 4.593928 0.42780125 -1.2965674
000070 70 ad fb 3e 98 12 1f bf c8 be f0 be e7 85 bf 3f
       0.4915576 -0.62137747 -0.47020555 1.4962739
000080 34 68 24 3e b9 52 3e bf 0b 19 ee be 5d fd fd 3f
       0.16055375 -0.74344975 -0.4650348 1.9842945
000090 a5 9c 94 3f e6 be a8 3f 84 90 78 40 d9 d3 52 3f
       1.1610304 1.3183258 3.8838205 0.82354504
0000a0 84 7b 5a bf 17 06 8f 3f 3c 27 25 3e 9c a8 b1 bf
       -0.8534472 1.1173733 0.16128248 -1.387958
0000b0 a7 45 59 bf 83 00 15 40 3e 58 1b 40 c8 3c 0c 40
       -0.84871906 2.3281562 2.4272609 2.1912098

model.base.8.branch3.1.bn.weight f4 [64]
000000 cc 51 6a 40 a8 88 8e 40 bf 38 4c 40 2f dc 50 40
       3.6612425 4.4541817 3.1909635 3.263439
000010 6f 44 85 40 10 5c 6a 40 20 a0 3e 40 b4 36 60 40
       4.1646037 3.661869 2.9785233 3.5033388
000020 34 67 60 40 37 60 7a 40 c9 3b 95 40 96 6d 9e 40
       3.506299 3.9121225 4.663548 4.950877
000030 14 0e 52 40 c9 09 62 40 72 0c 9d 40 ad 97 42 40
       3.2821093 3.5318472 4.907769 3.0405076
000040 7d 22 51 40 93 28 50 40 d4 7c 66 40 a8 e3 61 40
       3.26773 3.2524765 3.601369 3.52952
000050 ff aa 7d 40 49 57 6e 40 b8 7a 65 40 ac d8 82 40
       3.9635618 3.7240775 3.5856152 4.088949
000060 5a 69 52 40 e4 30 6b 40 dc 13 9a 40 34 f5 8c 40
       3.2876801 3.674859 4.8149242 4.404932
000070 7a 4a c6 40 78 f4 4f 40 bf 65 96 40 0d 5c 44 40
       6.1965914 3.2492962 4.69992 3.0681183
000080 d4 46 2d 40 f6 26 59 40 4f 6c 79 40 a8 28 3b 40
       2.707448 3.393003 3.8972356 2.9243565
000090 41 1e 75 40 4e 52 8b 40 83 6f 5a 40 3f aa 95 40
       3.8299716 4.353797 3.4130561 4.677032
0000a0 00 70 53 40 7f df 4f 40 30 6d 7b 40 39 d0 7b 40
       3.303711 3.248016 3.9285393 3.934584
0000b0 1b 25 8a 40 52 db 39 40 28 d2 52 40 f4 ee 3e 40
       4.3170295 2.9040112 3.294077 2.9833345
0000c0 22 32 59 40 c8 77 45 40 37 c4 87 40 a8 e2 87 40
       3.3936849 3.0854359 4.242702 4.246418
0000d0 f5 79 c5 40 ba a3 75 40 36 07 62 40 c2 cb 82 40
       6.1711373 3.838118 3.5316901 4.087373
0000e0 95 97 4e 40 04 0d 8e 40 50 69 3c 40 3e 98 73 40
       3.2280018 4.439089 2.9439278 3.8061671
0000f0 26 3a 4a 40 30 83 61 40 8e 15 5e 40 39 85 6d 40
       3.159799 3.523632 3.4700656 3.7112563

model.base.10.branch2.1.bn_t.running_var f4 [64]
000000 83 94 c6 42 08 da 69 43 70 13 54 43 fc 59 5f 43
       99.29006 233.85168 212.07593 223.3515
000010 74 78 14 43 5c c0 c0 43 db 29 0f 43 91 3b 8f 43
       148.47052 385.5028 143.1635 286.46536
000020 7c 74 e9 42 97 68 21 43 28 3c 8b 43 2b 78 87 43
       116.72751 161.40855 278.46997 270.9388
000030 d2 b9 79 43 b1 9f ff 42 58 93 9c 42 4f b1 fa 43
       249.72586 127.8119 78.28778 501.38522
000040 75 7a a2 43 3a 74 d8 43 8d ed 8d 43 05 1d a0 43
       324.9567 432.90802 283.85587 320.2267
000050 9b bc bb 42 9d 22 a5 43 57 2e d8 42 6e a8 f4 43
       93.86837 330.27042 108.09051 489.31586
000060 c6 f6 32 43 a4 96 50 43 d9 85 cc 43 39 81 0f 44
       178.96396 208.58844 409.0457 574.0191
000070 17 a9 a2 42 42 e6 f9 42 f0 23 9a 43 40 11 9b 43
       81.33025 124.94972 308.28076 310.13477
000080 f4 fd 98 43 e6 79 22 43 9c 57 2f 43 5b de 6c 43
       305.984 162.47617 175.34222 236.86858
000090 22 1e 99 43 5c d3 1b 43 47 fe d1 43 c5 81 79 42
       306.2354 155.82562 419.98654 62.376728
0000a0 0b a9 b3 43 e1 86 72 42 ea 87 01 44 1e d0 9f 42
       359.32065 60.631718 518.12366 79.90648
0000b0 07 c5 99 43 05 a3 27 43 e4 ed 70 43 19 55 2b 43
       307.53928 167.6368 240.92926 171.33241
0000c0 75 02 81 43 65 4a 61 43 77 89 ec 42 17 d7 15 43
       258.0192 225.2906 118.268486 149.8402
0000d0 b6 05 81 43 76 40 06 44 8b dd 24 44 52 ae dd 42
       258.04462 537.0072 659.4616 110.84047
0000e0 55 07 cc 42 3e d5 3c 43 b0 4d 63 43 88 1a fe 42
       102.01432 188.83298 227.30347 127.05182
0000f0 40 c1 e4 42 3a b6 0f 41 d9 7b 34 43 1b a5 8a 43
       114.37744 8.981989 180.48378 277.2899

model.base.11.branch2.1.conv_s.weight f4 [64, 32, 1, 3, 3]
000000 d4 99 79 be be e4 86 bb 51 b1 1b 3e df 50 bd be
       -0.24375087 -0.0041166237 0.1520436 -0.36975762
000010 32 e1 b9 be 55 55 98 be cb 98 19 be 0b 7e b0 be
       -0.36304623 -0.29752603 -0.14999692 -0.34471163
000020 17 08 67 be 0c d3 aa bf f1 27 3e bf 10 7a 07 c0
       -0.2256168 -1.3345656 -0.74279696 -2.116825
000030 8b 9a 86 bf 1e 73 c9 3e e8 79 80 bf cb 02 94 bf
       -1.0515913 0.3934564 -1.0037203 -1.1563352
000040 bc f8 75 bd a9 4b b4 bf fd f6 96 bc 3d 9d 2c be
       -0.060051665 -1.408559 -0.01842832 -0.16856857
000050 42 58 e7 bd 83 c6 4c bd 4c 45 12 3f 8e 92 0f 3e
       -0.11296131 -0.049994003 0.5713699 0.1402075
000060 b0 40 b9 bd 0c ca 6d 3e 1f 15 01 bd 7a a5 72 be
       -0.09045541 0.23221606 -0.031514283 -0.23695937
000070 f1 d9 6d 3e 8d 3f 8c be c8 c1 4d be f3 28 25 3f
       0.2322767 -0.27392235 -0.20093453 0.6451561
000080 86 97 b3 3d 9e 1a 5a be 4b c1 9c be 94 22 13 be
       0.08769135 -0.21299216 -0.3061622 -0.1436866
000090 16 9d 74 3e 87 58 45 3f 49 2c 4f 3e 98 4a 6a 3e
       0.23888049 0.77088207 0.20231737 0.22880018
0000a0 2c 52 2b 3f 33 0e ce 3e 9a 4b dc bc 59 e0 b6 bc
       0.6692226 0.40245208 -0.026891518 -0.022323774
0000b0 0c 79 02 bf fc d8 0e bf 96 b0 5f 3e a7 f1 c3 3e
       -0.5096595 -0.5579984 0.21844706 0.38270304
0000c0 c6 21 e1 be 1b a2 fc 3e 03 3a 2a be e6 eb 2f be
       -0.4397108 0.49342427 -0.16623692 -0.17179832
0000d0 7f 08 07 3f 38 06 4e 3e e6 d0 7a be ca 9e 0a bf
       0.5274734 0.2011956 -0.24493751 -0.5414854
0000e0 ab 13 b3 3e ce 48 b7 3d 06 d0 64 be 3f 6c 98 3c
       0.34975943 0.08949433 -0.2234498 0.018606303
0000f0 d5 6b be 3e f9 5c 76 3e 11 8f 05 3e 33 c8 21 be
       0.37191644 0.24058904 0.13042857 -0.15799026
000100 34 50 e9 be 12 a8 af be 5f 10 06 bb 84 38 c7 3e
       -0.45569003 -0.34307915 -0.0020456535 0.38910306
000110 e9 da bf 3d 45 3a 2b 3f 85 53 7b 3f 78 74 0c 3f
       0.09367926 0.6688579 0.98174316 0.5486522
000120 cb 7f 9d 3e 6b ab 62 3f bb bb a8 3d ba cc 83 3e
       0.3076156 0.88542813 0.08238932 0.2574213
000130 af 28 cf 3e 1b 7f 1b 3f fc 13 b5 bc 37 53 f6 3e
       0.40460727 0.6074082 -0.022104256 0.48110363
000140 1f 3b 66 3d 72 ba 3f 3e 92 40 fa 3e 7e 42 78 3e
       0.056208726 0.18723467 0.48877388 0.24244115
000150 cd c2 ef bd 6a 21 3c 3e 5a 7c 04 3e 6a d2 90 3e
       -0.11707077 0.18372121 0.12938061 0.28285533
000160 8f 42 8c 3e 2b 5d 94 3e e7 05 b2 3e 8a be 68 bb
       0.2739453 0.28977332 0.34770128 -0.003551396
000170 95 2a 76 40 6f 3c 5a bf ad 0b a8 bf 44 9a c3 3f
       3.846349 -0.85248464 -1.3128563 1.5281453
000180 42 99 14 be 60 35 1a bf 94 ba 1f 40 b2 60 94 3d
       -0.14511588 -0.60237694 2.4957628 0.07245006
000190 78 30 98 3e d6 98 16 3e bc 35 3a 3e c9 b3 8d 3f
       0.2972448 0.1470674 0.1818456 1.1070491
0001a0 7d 9a 1c 3f de 7d 6e 3e f5 28 0f 3f 66 39 1f be
       0.6117323 0.23290202 0.5592187 -0.1554924
0001b0 ae e9 d5 bf 3f 2e ab bf 0d 5f a9 bf f3 37 fa be
       -1.6711938 -1.3373488 -1.3232132 -0.4887081
0001c0 6a 26 54 3e 48 34 c4 be 96 62 ac 3e 81 04 a9 3f
       0.20717779 -0.38321137 0.33668965 1.32045
0001d0 1d 96 04 3f f1 c9 7e be 95 c8 7a be 31 d8 fd 3d
       0.51791555 -0.24881722 -0.24490578 0.12394751
0001e0 fd 29 59 3f 14 9f 3a 3f b3 81 26 3f 49 af fa 3d
       0.84829694 0.72898984 0.65041655 0.12240464
0001f0 a5 a5 14 3d 05 ce a7 3c 60 f6 ab 3e c0 04 16 3f
       0.036290783 0.02048398 0.33586407 0.58601
000200 1d 4d e7 3e 1a 98 06 bf 80 6e 8b bd 67 4e f1 be
       0.4517602 -0.5257584 -0.068081856 -0.4713013
000210 8c bf 38 bf a7 37 62 bf de ba 74 bf a0 ba 94 3f
       -0.7216728 -0.8836617 -0.95597637 1.1619453
000220 0f 86 58 3f 25 35 03 3f 9f 26 9e bd 92 17 31 3c
       0.8457956 0.5125297 -0.0772221 0.010808842
000230 e6 2d 75 bf 51 6c ac be e4 0c 16 bf cf 27 23 be
       -0.9577316 -0.3367639 -0.5861342 -0.15933155
000240 02 11 a5 3e 6e e5 52 bd 79 8c 6e 3e f2 b8 17 3f
       0.32239538 -0.051488332 0.23295774 0.5926658
000250 ad 7a 01 3f ce 08 e0 3e 0c d6 e0 3e 98 94 60 be
       0.50577813 0.43756717 0.43913305 -0.21931684
000260 53 9d 01 3f 99 a4 f1 be 5b c1 0c bf 88 29 cb be
       0.5063068 -0.4719589 -0.5498254 -0.39680123
000270 55 2b f2 be 38 7f f1 bd fd 25 8a be d2 2d c6 bd
       -0.47298685 -0.11791843 -0.26982108 -0.09676708
000280 c6 99 20 be 52 02 69 3e aa ba 86 3e 9d 92 85 3c
       -0.1568366 0.22754791 0.26314288 0.016305262
000290 16 db c4 3c 2e 30 8b 3e 4f ec 40 3e 17 61 9d 3e
       0.02403025 0.27185196 0.18840145 0.30738136
0002a0 17 2f e7 3d 62 60 85 bd 09 a4 fe be 87 37 a7 3e
       0.112882785 -0.06512524 -0.49734524 0.32659552
0002b0 ad 68 74 3f 3f bf de 3e 06 e7 90 3e 2e b8 e4 3e
       0.9547222 0.43505284 0.28301257 0.44671768
0002c0 30 bd c9 3e 0a 32 1a be 4b b2 82 3e fe fa 13 3d
       0.3940215 -0.15058151 0.25526652 0.036128037
0002d0 0d 47 db 3e 97 19 ae 3e 4e f5 5d 3e 25 bf 2f bc
       0.42827645 0.34003899 0.21675608 -0.010726725
0002e0 27 ca b5 3b 97 a8 01 bf 18 20 e2 be 2d 40 29 bf
       0.00554778 -0.5064787 -0.4416511 -0.6611355
0002f0 ce 06 b9 be 4f 6f 84 3f d0 bd a3 be 61 ad 56 3f
       -0.36138004 1.0346469 -0.31980753 0.83858305
000300 da 35 06 3f 40 32 c9 be f2 e6 d6 3e ed 56 a5 3e
       0.5242592 -0.3929615 0.41973072 0.32292882
000310 57 0e 2b be 77 e9 38 3e 40 af 74 3f 62 81 98 3d
       -0.16704689 0.1805781 0.9557991 0.07446553
000320 3f 5c 0c 3f 2d e7 47 3f 98 b3 c9 be d1 e7 64 3f
       0.54828256 0.7808712 -0.39394832 0.89416224
000330 d9 23 77 3f 8d 9a 4a 3e bb 1d 1e 3f dc 7d d3 be
       0.96539074 0.19785519 0.61764115 -0.4130696
000340 4d 85 1d 3f f3 20 e7 be 6c 23 26 bf b1 2d 4b 3f
       0.61531526 -0.45142326 -0.648978 0.79366595
000350 d4 3d c4 be ea ed 3a bf 9e 8c ac 3e 02 7a 06 bf
       -0.3832842 -0.7301928 0.33701032 -0.5252992
000360 99 e8 40 40 65 af 0a bf 47 be a2 bd 2b 04 aa 3f
       3.0141966 -0.5417388 -0.07946449 1.3282522
000370 4b 84 c3 bf f7 f3 91 bf c1 de 13 40 60 49 11 bf
       -1.5274748 -1.1402577 2.3104708 -0.56752586
000380 67 9a a5 bd 0a 90 88 bc 26 65 af 3d 05 b4 04 bf
       -0.080860905 -0.016670246 0.085642144 -0.5183719
000390 30 1b 6c bc 98 28 bc be 28 e9 80 3e 96 6c 44 3c
       -0.014410779 -0.3674972 0.25177884 0.0119887795
0003a0 87 8e 81 bd e4 ac 91 be b4 4e 2b be 6f 24 07 bf
       -0.06326013 -0.28452218 -0.16729242 -0.5278997
0003b0 e4 e8 0a bf 20 fb 1d bf c9 ec 25 bf b8 6d d3 be
       -0.5426161 -0.6171131 -0.6481443 -0.41294646
0003c0 39 5f 31 bf ba a5 2e bf 1e 3e 02 bf 0b 26 cb 3e
       -0.69285923 -0.6822163 -0.50876033 0.39677462
0003d0 2b fc 57 3e c7 48 af 3e 9e fd 11 3f ce 30 0b be
       0.21092288 0.34235212 0.57027614 -0.13592836
0003e0 52 b9 fc 3e a7 75 78 3e e7 b0 0b 3e 70 7d 88 3e
       0.49360138 0.24263631 0.13641702 0.266582
0003f0 e0 41 f2 3e 31 36 f5 3e 3a 9b 16 be e6 d2 b1 3c
       0.47315884 0.47892907 -0.14707652 0.02170701

model.base.11.branch2.1.bn_t.running_var f4 [64]
000000 33 c9 97 44 af 6c cb 42 bc 29 39 43 9d e9 7c 44
       1214.2875 101.71227 185.16302 1011.6502
000010 92 19 b3 43 25 a1 66 44 f2 46 32 43 2d fb 04 44
       358.19977 922.5179 178.27713 531.9246
000020 d4 77 16 43 d0 66 61 43 fb 09 98 43 c2 a2 49 43
       150.46808 225.40161 304.07797 201.63577
000030 0f 38 4e 43 c7 42 87 43 b0 a7 98 42 d1 df b1 43
       206.21898 270.5217 76.327515 355.74857
000040 e3 cb 84 42 c6 ac c2 43 26 d7 ca 43 97 8a 6b 43
       66.39822 389.3498 405.68085 235.54137
000050 b6 b9 b1 43 29 3e b0 43 54 c4 0d 44 93 ba 54 42
       355.45087 352.48563 567.0676 53.1822
000060 1b 60 f1 42 2e b3 24 43 59 fb 80 44 b6 52 ae 43
       120.687706 164.69992 1031.8546 348.64618
000070 70 d9 e9 43 bf 27 00 43 1e d7 92 43 54 42 c0 43
       467.69873 128.15526 293.6806 384.5182
000080 a7 1e 6b 44 05 92 23 43 fa 64 e3 42 a6 2b af 43
       940.47894 163.57039 113.69722 350.341
000090 04 8f 9d 43 61 de 16 43 a6 29 12 43 0b 42 59 43
       315.1173 150.86867 146.16269 217.25798
0000a0 ff 52 7b 43 d3 6f 69 43 bf f6 2f 45 c3 4d fc 42
       251.3242 233.43681 2815.4216 126.15188
0000b0 e3 6f 86 42 d1 f9 c7 43 76 51 24 44 e8 5a e9 43
       67.21853 399.9517 657.2728 466.7102
0000c0 ae 89 d4 43 3b 2e 6c 43 08 12 56 42 82 cb b0 43
       425.07562 236.18059 53.51761 353.5899
0000d0 47 1e 59 43 7e a1 49 43 f6 a3 aa 43 3a f2 0a 44
       217.11827 201.63083 341.28094 555.7848
0000e0 5f 2b cc 43 59 33 b5 43 98 47 29 43 61 f3 d5 44
       408.33884 362.40115 169.27966 1711.6056
0000f0 50 10 cf 44 dc 85 2c 44 8e 62 55 43 53 73 9c 42
       1656.5098 690.09155 213.38498 78.22524

model.base.14.branch1.1.bn_t.weight f4 [320]
000000 8d ad 73 40 32 af 9f 40 96 7e 9d 40 64 de 63 40
       3.8074677 4.990136 4.9217024 3.5604486
000010 fc 0d 77 40 49 d5 82 40 cf aa 83 40 5e e8 79 40
       3.8602285 4.088536 4.1146007 3.9048076
000020 68 08 8b 40 59 6b 80 40 e4 04 8a 40 7c 69 85 40
       4.344776 4.013104 4.313097 4.1691265
000030 e7 7a 84 40 71 d4 7a 40 b4 1b 67 40 f6 d2 73 40
       4.1400027 3.9192164 3.6110659 3.809751
000040 5c 42 81 40 6b 60 a6 40 9e a9 66 40 04 64 a9 40
       4.0393505 5.19927 3.6041026 5.293459
000050 99 ba 65 40 ae 9f 68 40 90 05 7e 40 32 ff a5 40
       3.589514 3.634746 3.9690895 5.187402
000060 35 43 91 40 b4 d2 80 40 5c 5d a1 40 3b 8f 79 40
       4.539454 4.0257206 5.0426464 3.899367
000070 a9 e0 68 40 97 65 aa 40 3d b9 87 40 34 24 83 40
       3.6387122 5.324901 4.241362 4.0981693
000080 e4 92 8b 40 06 94 ab 40 87 58 89 40 30 73 7d 40
       4.361681 5.3618193 4.2920566 3.9601555
000090 49 db 77 40 14 a4 57 40 7a bf 7b 40 c1 56 84 40
       3.872759 3.3693895 3.9335618 4.13559
0000a0 56 26 7e 40 a2 b4 83 40 38 a4 94 40 f2 aa 8a 40
       3.9710898 4.1158 4.645046 4.3333673
0000b0 ed 88 8c 40 06 2d 99 40 f5 b2 68 40 22 bb 95 40
       4.3917146 4.786746 3.6359227 4.6790934
0000c0 b7 16 5b 40 f8 94 85 40 b6 b7 80 40 ce ff 95 40
       3.4232614 4.1744347 4.0224257 4.687476
0000d0 c0 10 94 40 66 0d 82 40 cd e8 8e 40 a4 8b 8b 40
       4.6270447 4.0641356 4.465918 4.360796
0000e0 48 b8 76 40 b2 7e 8c 40 ad f2 8f 40 04 0a e7 40
       3.8549976 4.3904657 4.4983735 7.2199726
0000f0 99 47 dd 40 05 12 6d 40 96 5b 3f 40 03 d0 73 40
       6.91499 3.7042248 2.989965 3.809571
000100 98 96 88 40 1e 29 70 40 0a cc 71 40 21 89 a2 40
       4.268383 3.7525096 3.7780786 5.0792394
000110 a4 d5 7b 40 ae b8 8e 40 47 60 61 40 31 5e 84 40
       3.9349146 4.460044 3.5215013 4.136498
000120 ca f0 6e 40 76 a4 82 40 57 e1 7a 40 29 7f a3 40
       3.7334466 4.082576 3.9200037 5.1092725
000130 fa d7 5a 40 c9 e3 53 40 4a 4b 89 40 12 ea 69 40
       3.4194322 3.310778 4.2904406 3.6549115
000140 25 40 90 40 ce 60 77 40 91 2f 73 40 71 b6 8f 40
       4.50783 3.8652835 3.7997782 4.4910207
000150 43 5f 88 40 e3 bd a1 40 8a fc 95 40 32 b3 7b 40
       4.2616286 5.0544295 4.6870775 3.9328122
000160 4c 93 81 40 42 2f 7a 40 25 cd 8e 40 6a 56 bc 40
       4.0492306 3.9091344 4.462542 5.8855486
000170 84 aa 85 40 9b 60 7d 40 4c 3a 89 40 f9 4c 81 40
       4.177065 3.9590213 4.2883663 4.040646
000180 6e 65 7f 40 52 19 85 40 af 6e 72 40 4c 3b 72 40
       3.9905658 4.159341 3.7880056 3.7848692
000190 dc af 97 40 c7 96 8f 40 3a 16 85 40 ca 56 84 40
       4.740217 4.4871554 4.158963 4.1355944
0001a0 db 11 5d 40 79 72 e8 40 c6 6d 87 40 ca 46 84 40
       3.4542148 7.2639737 4.23215 4.1336412
0001b0 4b 38 8a 40 16 e9 84 40 97 83 6f 40 c3 af 7b 40
       4.3193717 4.153453 3.7424066 3.9326026
0001c0 8a 7f 7f 40 29 f1 f4 3f 3e 8a 72 40 4c 8c 57 40
       3.9921594 1.9136096 3.7896876 3.367938
0001d0 a1 c9 7d 40 24 a0 8b 40 1d 01 7f 40 0e 75 93 40
       3.9654315 4.3632984 3.984443 4.608039
0001e0 90 c9 79 40 15 78 93 40 c2 5b 71 40 a5 ac 84 40
       3.9029274 4.6084085 3.7712255 4.146075
0001f0 28 14 95 40 96 69 8d 40 b4 cd 85 40 23 75 93 40
       4.6587105 4.419139 4.1813602 4.608049
000200 48 2a 8f 40 0e fc 64 40 6b 4c 96 40 34 22 79 40
       4.4739113 3.5778842 4.6968284 3.8927126
000210 99 72 83 40 a8 ae 6b 40 da 7f 93 40 a6 6a a5 40
       4.107739 3.6825352 4.609357 5.1692686
000220 bc 8e 6a 40 e7 be 89 40 7c e4 82 40 0d 62 68 40
       3.6649618 4.3045535 4.090391 3.6309845
000230 2d fd 83 40 d0 a5 8c 40 99 93 80 40 25 a3 85 40
       4.1246552 4.395241 4.0180173 4.176165
000240 fc b4 6f 40 58 6a 64 40 3e da 8e 40 33 d4 68 40
       3.7454214 3.5689907 4.464141 3.6379516
000250 09 c3 84 40 9f ee 86 40 75 f5 72 40 33 8f cc 40
       4.148808 4.2166286 3.7962315 6.3924804
000260 bd c8 8e 40 ab 20 63 40 ce 4a 80 40 a5 d5 8e 40
       4.462004 3.548869 4.0091314 4.4635797
000270 f9 cc 67 40 33 19 7b 40 9d 2d 84 40 b3 40 9b 40
       3.6218855 3.923413 4.130568 4.851648
000280 ae c5 71 40 7e 4d 82 40 80 10 11 41 56 81 8c 40
       3.7776904 4.0719595 9.066528 4.390788
000290 c2 e1 85 40 ed e8 62 40 e9 54 5e 40 0a 9a 7c 40
       4.1838083 3.5454667 3.4739325 3.9469018
0002a0 00 95 68 40 fd 55 8d 40 00 ad 24 40 f0 1e a5 40
       3.6340942 4.4167466 2.573059 5.1600266
0002b0 3d de 88 40 a2 6c b3 40 90 c9 63 40 5e 45 8b 40
       4.2771287 5.607011 3.5591774 4.3522177
0002c0 8f 82 74 40 5f 17 84 40 0c 37 81 40 9b 19 63 40
       3.8204687 4.127853 4.0379696 3.5484378
0002d0 87 30 71 40 44 d6 93 40 dc fb 82 40 69 ba 73 40
       3.7685869 4.6199055 4.0932446 3.8082526
0002e0 18 36 61 40 af 2a 95 40 58 0a 7b 40 65 e0 67 40
       3.5189266 4.6614604 3.9225063 3.623071
0002f0 37 46 81 40 b9 58 63 40 9a a3 80 40 28 6c 8b 40
       4.039821 3.5522902 4.019971 4.3569527
000300 00 95 81 40 31 5c a9 40 06 bf 74 40 f5 a1 4f 40
       4.0494385 5.292504 3.8241591 3.24426
000310 6f 5d 76 40 ac e6 88 40 38 09 91 40 70 ec 78 40
       3.8494527 4.278158 4.5323753 3.889431
000320 7e 83 6d 40 c5 be ad 40 57 ad 8e 40 c6 49 59 40
       3.7111506 5.4295373 4.4586596 3.3951278
000330 7a 3a 81 40 81 21 7e 40 a9 b2 88 40 15 fa 65 40
       4.0383883 3.970795 4.271809 3.5933888
000340 93 06 af 40 47 78 67 40 7b 8a b6 40 e9 88 6f 40
       5.4695525 3.6167161 5.7044044 3.7427313
000350 09 5f 83 40 e8 54 81 40 8b f8 8b 40 be d6 76 40
       4.105351 4.0416145 4.3740897 3.8568568
000360 c8 6b 78 40 5c 83 83 40 48 d4 86 40 ed 04 89 40
       3.8815784 4.109785 4.2134132 4.2818513
000370 0c 77 7f 40 bf 60 8b 40 4e 41 81 40 9c 02 6f 40
       3.991641 4.35556 4.039222 3.7345343
000380 79 a2 82 40 ec ef 76 40 d5 23 8c 40 77 ba 71 40
       4.082333 3.8583937 4.379374 3.777006
000390 48 12 7a 40 42 e7 b2 40 c9 15 74 40 7e 2a 8e 40
       3.9073658 5.5907297 3.8138297 4.442687
0003a0 0a 75 82 40 24 d3 7c 40 e5 15 94 40 d9 9b 84 40
       4.076787 3.950387 4.6276727 4.1440244
0003b0 b9 32 8b 40 8a 74 74 40 2e 53 84 40 c2 fb ae 40
       4.3499417 3.819613 4.135154 5.468232
0003c0 6e 04 70 40 9f 00 78 40 26 47 98 40 4c 23 93 40
       3.7502704 3.875038 4.758685 4.5980587
0003d0 43 9f 73 40 da 90 59 40 0a f4 8d 40 ff 62 83 40
       3.8065956 3.399466 4.43604 4.1058345
0003e0 0b 89 6f 40 4c 97 67 40 ae 4d 90 40 b7 fa 87 40
       3.7427394 3.6186094 4.5094824 4.249355
0003f0 01 16 88 40 c8 11 7e 40 b2 4f 57 40 14 99 a4 40
       4.252686 3.9698353 3.3642392 5.1436863

model.base.14.branch2.1.bn_s.weight f4 [128]
000000 f1 9a 59 40 e9 6a 2d 40 0a e5 44 40 7e af 65 40
       3.4000819 2.7096503 3.0764794 3.5888362
000010 86 7f 47 40 dc 59 5c 40 3d 58 5d 40 8d 9b 3f 40
       3.1171584 3.4429846 3.4585106 2.993869
000020 f2 a6 20 40 be a4 4f 40 4c 77 2e 40 2d 96 5e 40
       2.5101895 3.24443 2.7260313 3.477916
000030 44 99 3f 40 7b 45 2d 40 65 76 82 40 39 96 47 40
       2.9937296 2.7073658 4.0769525 3.1185439
000040 14 a5 2f 40 07 53 44 40 02 ed 29 40 fb eb 11 40
       2.7444506 3.0675676 2.6550908 2.280028
000050 4d e1 34 40 0c 6f 4c 40 d0 16 80 40 7e c2 83 40
       2.8262513 3.1942778 4.0027847 4.1174917
000060 ff 4f 56 40 6d f8 3d 40 05 fb 3c 40 76 92 4b 40
       3.3486326 2.9682877 2.952821 3.1808143
000070 14 8d 60 40 c0 eb 54 40 34 e8 2e 40 73 e6 48 40
       3.5086107 3.326889 2.7329226 3.1390655
000080 2a b4 4c 40 54 ae 72 40 2c 84 3f 40 9f c5 42 40
       3.1984963 3.7918901 2.9924421 3.0433118
000090 b4 ce 31 40 af d9 60 40 ec 25 5b 40 b2 18 29 40
       2.7782412 3.5132864 3.4241896 2.6421323
0000a0 58 8d 70 40 00 2f 40 40 2e 7e 4f 40 ec 38 4a 40
       3.758627 3.0028687 3.2420764 3.1597242
0000b0 4c 25 70 40 5f a6 37 40 b2 ea 50 40 48 6d 33 40
       3.7522764 2.8695295 3.2643247 2.803545
0000c0 c3 53 41 40 9c e1 45 40 ee bd 24 40 1f ab 1f 40
       3.0207374 3.091895 2.5740924 2.4948194
0000d0 15 07 53 40 1a 30 47 40 c0 de 59 40 0b cc 7f 40
       3.2973073 3.112311 3.4042206 3.9968288
0000e0 48 3b 67 40 b6 12 53 40 36 b0 5d 40 58 ac 20 40
       3.6129932 3.298017 3.46388 2.510519
0000f0 ed 33 4a 40 6a 14 34 40 01 7e 3a 40 e1 49 4f 40
       3.1594193 2.813746 2.9139407 3.2388842
000100 e4 7e 31 40 0a ea 2c 40 68 02 7d 40 1f 2e 33 40
       2.7733698 2.7017846 3.9532719 2.79969
000110 dc 4a 26 40 23 63 4f 40 08 e6 1f 40 8b 84 45 40
       2.598319 3.2404258 2.498415 3.0862148
000120 7e 6e 78 40 12 f5 82 40 25 ba 57 40 7a 92 40 40
       3.881744 4.092416 3.3707364 3.0089402
000130 51 e0 52 40 0b b9 79 40 5d d6 62 40 8a bb 61 40
       3.2949412 3.9019191 3.5443337 3.5270715
000140 21 fd 6b 40 05 c6 3c 40 01 dc 5e 40 dd 3c 35 40
       3.6873248 2.9495862 3.482178 2.8318398
000150 ad 25 45 40 7a 15 4b 40 b0 66 3f 40 21 f9 47 40
       3.0804245 3.1731858 2.9906425 3.1245806
000160 03 23 4d 40 5f 33 47 40 3a fc 55 40 70 bd 4c 40
       3.205262 3.1125104 3.3435197 3.1990623
000170 73 10 3f 40 46 ca 4d 40 4e 66 22 40 44 5a 5c 40
       2.985379 3.2154708 2.5374942 3.4430094
000180 9b bd 4c 40 da 3f 7c 40 ec b2 5b 40 7d ff 3e 40
       3.1990726 3.9413972 3.4327955 2.9843438
000190 46 b1 4c 40 fc bc 47 40 78 0b 63 40 16 3d 61 40
       3.19832 3.1209097 3.547575 3.5193534
0001a0 40 13 76 40 a9 af 3c 40 58 f6 8a 40 d7 af 3d 40
       3.844925 2.9482214 4.3425713 2.9638574
0001b0 18 0d 43 40 0d 71 32 40 4c d3 38 40 e1 3b 37 40
       3.0476742 2.78815 2.8878965 2.8630297
0001c0 2d 54 3c 40 8e fe 40 40 c2 3d 19 40 5f 77 51 40
       2.9426377 3.0155368 2.3943944 3.2729108
0001d0 cb f2 35 40 57 bf 53 40 8a 1c 37 40 9c f6 46 40
       2.842944 3.3085535 2.861117 3.1088018
0001e0 21 8a f2 3f d2 3b 69 40 d5 54 28 40 66 d7 54 40
       1.8948404 3.6442761 2.6301777 3.3256469
0001f0 4b d0 57 40 61 b4 35 40 58 05 33 40 5b 90 1e 40
       3.3720882 2.8391345 2.7972012 2.4775608

model.base.15.branch1.1.bn_t.weight f4 [384]
000000 d8 1a 4f 40 be 16 85 40 72 d2 81 40 0a 02 5d 40
       3.2360134 4.159026 4.056939 3.4532495
000010 5f c2 8a 40 85 99 96 40 cc 46 aa 40 45 1c 8b 40
       4.336227 4.70624 5.321142 4.347201
000020 01 94 76 40 bb f3 86 40 e2 7c 74 40 7d fc 82 40
       3.8527834 4.2172523 3.8201222 4.0933213
000030 6c a4 82 40 ae d0 88 40 92 0d 86 40 6d 41 7e 40
       4.082571 4.2754736 4.1891565 3.9727433
000040 90 a1 80 40 df d6 83 40 3a f2 48 40 ef b5 97 40
       4.019722 4.1199794 3.1397843 4.7409587
000050 d5 3d 8c 40 19 ab 88 40 bc 18 85 40 f8 e2 89 40
       4.382548 4.270886 4.1592693 4.308956
000060 1c 4d 85 40 a7 3a 81 40 fc 34 80 40 9c 63 94 40
       4.165663 4.0384097 4.006468 4.6371593
000070 fd cf 93 40 de fe 49 40 bd ba 84 40 59 2b 56 40
       4.619139 3.1561809 4.147795 3.3463957
000080 fb 6e 81 40 be 89 8d 40 8b 95 8a 40 cf 17 71 40
       4.0447974 4.423064 4.3307548 3.7670782
000090 c2 68 79 40 d5 a6 88 40 cf 42 93 40 1b 86 69 40
       3.897019 4.270365 4.6019053 3.6488101
0000a0 25 f6 90 40 a2 37 86 40 ad f8 57 40 d2 48 82 40
       4.530047 4.194291 3.374553 4.071389
0000b0 03 e5 8a 40 f9 ed 8a 40 12 45 80 40 3e fd 83 40
       4.3404555 4.3415494 4.0084314 4.1246634
0000c0 fd 37 91 40 ab fd 7d 40 89 f2 63 40 3c 3a 8a 40
       4.5380845 3.9686077 3.5616782 4.3196087
0000d0 55 75 92 40 a5 e8 7c 40 7a 70 76 40 78 57 88 40
       4.5768228 3.9516995 3.850615 4.2606773
0000e0 68 b4 83 40 30 0e 86 40 17 fb 4c 40 cc 6c 66 40
       4.1157722 4.189232 3.2028253 3.6003904
0000f0 56 95 a8 40 80 99 92 40 61 47 45 40 09 63 7f 40
       5.2682295 4.581238 3.0824816 3.9904196
000100 5c ab 8c 40 ca 9b 85 40 01 8e 94 40 22 22 8d 40
       4.395918 4.175267 4.6423345 4.4104166
000110 1b 50 93 40 0f a2 89 40 b4 27 4c 40 74 27 6d 40
       4.6035285 4.3010325 3.1899233 3.705533
000120 a0 74 93 40 3e 8f 90 40 0c 6f 97 40 0c e2 98 40
       4.6079865 4.5174856 4.7323055 4.7775936
000130 a0 bf 8c 40 63 cf 80 40 0d d7 9a 40 39 ca 92 40
       4.3983917 4.0253158 4.8387513 4.5871854
000140 43 64 83 40 d3 8a 89 40 00 0b 63 40 05 10 94 40
       4.105989 4.2981963 3.5475464 4.6269555
000150 c1 f1 6b 40 19 fa 6e 40 09 34 85 40 7f dd 87 40
       3.6866305 3.7340147 4.162602 4.245788
000160 a1 0c 7f 40 8c 2e 8c 40 60 94 90 40 1c 46 87 40
       3.9851458 4.380682 4.518112 4.2273083
000170 dd 3e 9f 40 f9 78 5a 40 cf cc 83 40 97 25 84 40
       4.9764237 3.4136336 4.118751 4.1295886
000180 f5 52 71 40 2f 6b 87 40 32 2d 91 40 6e 35 78 40
       3.7706883 4.231834 4.536767 3.878261
000190 06 3d 45 40 10 d1 67 40 e4 d6 64 40 44 57 85 40
       3.0818496 3.6221352 3.575616 4.1669025
0001a0 c4 45 48 3f b8 78 72 40 8d 0e 81 40 75 40 80 40
       0.78231454 3.788618 4.033026 4.0078683
0001b0 63 4a 55 40 98 78 59 40 89 2a b3 40 5e 53 88 40
       3.3326652 3.3979855 5.5989423 4.2601767
0001c0 b7 b1 84 40 ad f1 63 40 bd fc 8e 40 94 b8 76 40
       4.1466937 3.5616257 4.468352 3.8550158
0001d0 4b 7e 9c 40 f0 58 8a 40 69 41 4e 40 27 0b a0 40
       4.8904166 4.3233566 3.2227423 5.0013614
0001e0 78 be 85 40 8c 03 9b 40 c5 4d 96 40 13 ae 78 40
       4.1795006 4.844183 4.6969934 3.8856246
0001f0 2a 3c 82 40 43 8f 6c 40 8b 36 87 40 92 fa 93 40
       4.0698442 3.696244 4.225408 4.624337
000200 68 93 85 40 00 44 9f 40 4c 16 70 40 ff 6c 8a 40
       4.174244 4.977051 3.751361 4.325805
000210 aa 66 87 40 e8 e4 83 40 fb 14 8b 40 de ce 86 40
       4.231282 4.1216927 4.346311 4.2127523
000220 16 59 75 40 8b 0f 95 40 64 81 7a 40 e5 20 8c 40
       3.8335624 4.6581473 3.9141474 4.3790154
000230 d6 d5 86 40 28 84 99 40 e9 69 79 40 0d 86 88 40
       4.213603 4.7973824 3.8970892 4.2663636
000240 02 f5 84 40 05 c0 90 40 19 1c 72 40 6f 30 76 40
       4.154908 4.52344 3.782965 3.8467062
000250 bf 1c 77 40 26 ea 6e 40 88 03 92 40 ad 0d 86 40
       3.8611295 3.7330413 4.562931 4.1891694
000260 14 a2 91 40 b2 13 92 40 03 de 90 40 1b 97 7e 40
       4.551035 4.564904 4.527101 3.9779727
000270 28 3d 8e 40 34 57 84 40 00 53 73 40 e8 ec 82 40
       4.4449654 4.135645 3.801941 4.091419
000280 98 ef 88 40 31 9b 65 40 28 24 97 40 e1 61 80 40
       4.2792473 3.5875971 4.7231636 4.011948
000290 89 7d 8e 40 31 f7 92 40 d3 18 6f 40 e7 0c 6d 40
       4.452824 4.5926747 3.7358902 3.7039125
0002a0 fb 05 8a 40 78 3d 67 40 38 6e 8c 40 a4 e1 8c 40
       4.31323 3.6131268 4.3884544 4.402544
0002b0 7e 6e 62 40 63 3b 47 40 e8 8e 87 40 40 1f 42 40
       3.537994 3.1129997 4.2361946 3.0331573
0002c0 19 ca 64 40 d9 f1 8a 40 d1 1c 90 40 c3 bb 73 40
       3.574835 4.3420224 4.5035176 3.808335
0002d0 67 ff 9a 40 74 f7 9e 40 d3 79 97 40 b1 b5 9b 40
       4.843677 4.9677067 4.733621 4.865929
0002e0 81 e1 95 40 0b f4 9c 40 6d 9c 6f 40 7b d7 87 40
       4.6837773 4.9047904 3.7439225 4.245054
0002f0 41 2a 98 40 63 2b 90 40 cf df 7a 40 e2 03 a3 40
       4.755158 4.505296 3.9199102 5.094224
000300 c4 b1 85 40 f8 59 5a 40 db 30 86 40 ae 7e 85 40
       4.17795 3.4117413 4.193464 4.171714
000310 27 87 91 40 9e d1 85 40 8a 85 5d 40 48 8b 85 40
       4.547748 4.181838 3.4612756 4.173252
000320 30 a7 93 40 b3 da 8f 40 7f 3b 50 40 ed c2 86 40
       4.6141586 4.4954467 3.2536314 4.2112947
000330 1f c5 68 40 9c 83 90 40 ce 39 81 40 e7 37 77 40
       3.6370313 4.5160656 4.038306 3.862787
000340 ad ec 9e 40 88 76 86 40 ee fb 71 40 18 c8 77 40
       4.966391 4.201969 3.7810016 3.8715878
000350 25 b2 90 40 e2 b1 58 40 ea 5f 16 40 37 18 74 40
       4.521746 3.385857 2.3496041 3.813978
000360 19 fc 1a 40 c6 20 87 40 86 0f 86 40 34 21 8f 40
       2.4216368 4.2227507 4.189395 4.472803
000370 7c cc 4f 40 04 dd 8a 40 78 cd 87 40 03 4f 8b 40
       3.2468557 4.3394794 4.2438316 4.353395
000380 07 2e 8a 40 fb 47 7f 40 9f ac 9c 40 8c 4f 92 40
       4.3181186 3.9887683 4.896072 4.5722103
000390 65 fd 6f 40 88 68 71 40 f5 d0 84 40 3c e5 7c 40
       3.749841 3.772005 4.1505075 3.9514914
0003a0 3c 21 90 40 d2 13 4b 40 19 67 66 40 65 9c 87 40
       4.504057 3.1730847 3.6000426 4.237841
0003b0 fd 31 1f 40 f6 1d 97 40 12 dc 72 40 58 08 74 40
       2.487426 4.7224073 3.794682 3.8130093
0003c0 4c 79 85 40 f3 9a 86 40 a1 83 7c 40 d3 f8 84 40
       4.1710567 4.2064147 3.945534 4.155374
0003d0 06 f0 84 40 ca 53 8f 40 fd 5a 9a 40 21 62 6d 40
       4.1542997 4.478978 4.823607 3.7091143
0003e0 6c 8f 20 40 87 57 7c 40 95 dd 7b 40 c7 84 76 40
       2.5087538 3.9428422 3.9353993 3.851854
0003f0 b0 08 8e 40 20 51 8a 40 1d 4d 1f 40 ee cf 87 40
       4.4385605 4.322403 2.4890816 4.244132
